SavedNets/doNotDelete/new (show)/Policy.pt (torch, 7559 bytes, 8 tensors)

weight f4 [16, 7]
-1.4321948 0.026873065 -0.2675617 0.19292718 -7.4174056 -0.8929255 4.442898 0.019867364
0.23942848 -0.08970449 -0.119705826 0.32485616 -0.1902609 -0.050412897 0.1989372 -0.0026909795
0.50854176 -0.7485883 -6.995222 -3.2120554 -1.5273209 -0.06809675 0.8314713 -0.18669862
-3.033434 -8.830958 -1.697414 0.90171957 -0.0713554 -0.358651 -0.07222429 -0.11157492
-0.3486684 -0.23871587 -0.15266626 -2.8573732 2.814513 0.45778415 0.0006002459 0.14668702
-1.3049306 0.64393115 -0.19051631 -0.312397 -0.33213133 0.08334784 -0.13249415 -0.21689966
-0.2089706 -4.4246993 0.56980634 0.9959674 -0.6532592 -0.6501658 -0.551073 3.3796878
0.020148708 1.3145332 0.26656526 0.3205601 0.47669664 0.7974742 0.4152851 -0.6156812
2.027827 -0.7304427 0.6463825 1.014693 -1.9431933 -0.8007556 0.120096676 2.7463093
-1.608261 -1.560964 -4.1732993 -0.188268 0.9728467 -1.2833703 2.3160508 0.96020913
-0.07670041 -0.33716285 -6.6450896 3.29329 -0.055541266 -0.23723821 1.9093574 -0.34557927
-1.4055685 2.8775747 -1.4103646 1.403632 -1.538978 -0.69965714 0.45034418 0.78829974
3.8617456 -1.4502167 2.4514644 -0.5351489 -0.07267536 -2.449249 -0.44040078 2.482084
-1.3937914 -0.24874781 2.9651625 -0.7886126 -2.3323562 0.75794214 1.2264757 1.3062389
00000000: 2952 b7bf e724 dc3c d9fd 88be b48e 453e
00000010: 635b edc0 c496 64bf 382c 8e40 e2c0 a23c
00000020: bd2c 753e fdb6 b7bd 5428 f5bd 8c53 a63e
00000030: c1d3 42be c17d 4ebd 31b6 4b3e 255b 30bb
00000040: cb2f 023f 7ca3 3fbf dcd8 dfc0 5192 4dc0
00000050: 407f c3bf 4f76 8bbd 4edb 543f ec2d 3fbe
00000060: c823 42c0 9b4b 0dc1 dd44 d9bf 18d7 663f
00000070: c822 92bd 1ba1 b7be 54ea 93bd 6481 e4bd
00000080: aa84 b2be ef71 74be 8b54 1cbe 34df 36c0
00000090: fb20 3440 af62 ea3e d259 1d3a 1f35 163e
000000a0: f707 a7bf acd8 243f b516 43be 80f2 9fbe
000000b0: 1e0d aabe 46b2 aa3d 8cac 07be f21a 5ebe
000000c0: 64fc 55be 2397 8dc0 d4de 113f b8f7 7e3f
000000d0: ff3b 27bf 4471 26bf 1f13 0dbf ce4c 5840
000000e0: e70e a53c a042 a83f 3e7b 883e 7420 a43e
000000f0: 9511 f43e 4527 4c3f 40a0 d43e 489d 1dbf
00000100: ebc7 0140 4bfe 3abf 5379 253f 76e1 813f
00000110: 8fba f8bf 52fe 4cbf 3ff5 f53d 88c3 2f40
00000120: 7fdb cdbf abcd c7bf ab8b 85c0 54c9 40be
00000130: 7b0c 793f 7a45 a4bf 2d3a 1440 44d0 753f
00000140: 1b15 9dbd 9ca0 acbe 93a4 d4c0 43c5 5240
00000150: 3d7f 63bd 93ee 72be d365 f43f c4ef b0be
00000160: abe9 b3bf 2f2a 3840 d486 b4bf 37aa b33f
00000170: 3bfd c4bf bb1c 33bf 8393 e63e 03ce 493f
00000180: d726 7740 b3a0 b9bf cbe4 1c40 85ff 08bf
00000190: d2d6 94bd 7fc0 1cc0 367c e1be 77da 1e40
000001a0: c267 b2bf bfb7 7ebe 39c5 3d40 84e2 49bf
000001b0: 5345 15c0 7f08 423f 28fd 9c3f d632 a73f

bias f4 [16]
0.898171 -0.39542395 -0.31194484 1.2432061 -0.092695415 0.9322333 0.1593243 -0.03372886
-1.404551 -0.6922986 -0.21621639 0.43009642 0.3773289 1.2824719 -1.1632315 -2.1624696
00000000: 89ee 653f 0275 cabe 3cb7 9fbe 6121 9f3f
00000010: 18d7 bdbd d7a6 6e3f e925 233e 4627 0abd
00000020: 54c8 b3bf 7b3a 31bf d467 5dbe 9935 dc3e
00000030: 4131 c13e 0a28 a43f c5e4 94bf e765 0ac0

weight f4 [16, 16]
1.3932164 0.21523297 2.958586 0.778946 0.02157405 0.32867384 0.03226474 1.70158
-2.3970134 -0.084400274 -0.059870765 -0.35822248 0.3066351 -1.3637679 5.6691833 8.69462
3.1425188 -0.14805076 2.6136308 2.2558796 0.224435 -0.2948185 -0.07333198 2.1745238
0.30019942 -1.4940097 -0.96804154 0.94840366 -0.8137925 0.22437598 6.68868 5.053806
1.5620157 0.17401898 1.9153935 3.4103873 -0.23051357 -0.34961566 -0.20646296 0.038349602
-0.66159296 0.8858961 2.3692865 1.3619916 0.3666939 0.12464581 -2.1592214 -0.021823682
1.2884363 -0.17742255 2.0172265 1.5987582 0.13795611 -0.9965604 0.2258812 -0.519801
-1.2101465 -0.07647167 3.3825014 1.0649428 0.6985079 0.87886727 -1.4990921 0.9270783
-3.330251 -0.22581021 -1.8242183 -1.2156426 0.061919093 0.33344314 -0.1453251 -2.0366478
0.32319117 -0.86760277 -0.67398673 0.21946241 0.08624529 0.5039017 2.6331034 -3.0704064
0.7071089 0.0017428366 1.6022644 -0.9590906 0.12872648 -0.6322725 0.08359376 1.3082968
-2.1426544 0.250269 4.253285 1.7550768 1.4267744 0.70993745 0.00020661685 -0.6703826
-0.70826733 0.10950099 -2.1309998 -12.034116 -0.21333587 0.86994016 -0.23994853 -1.3286403
1.1369013 -0.94045854 1.5711651 -0.22892968 0.67513305 0.73275304 -0.53027016 -0.5657105
4.984538 0.07116976 2.2599645 3.5242586 0.014115155 -0.2192647 -0.16323742 2.2922041
-1.6835912 -2.7175708 1.266275 -0.071265906 -0.48376948 0.15843546 -2.6077628 3.2082512
2.0551465 0.11112165 2.0219312 5.317272 -0.17364985 -0.60416013 -0.112927094 -4.887323
0.4100472 0.79854673 2.9655616 0.0769779 0.7553247 1.2800158 -5.2696376 -2.6493232
-0.19383813 0.18425116 -0.084598005 0.326082 0.030385762 -0.25590298 0.24173763 -0.19120689
0.15036209 0.037986763 -0.16902886 0.18476203 -0.044199884 -0.18670866 0.3684377 -0.29889002
-3.0907323 0.13871722 -2.00773 -3.5270987 -0.2029435 0.7179416 0.10113196 -1.5537714
-1.0545137 -0.5687507 -0.33626023 0.0059673507 1.0144601 -0.31870127 -3.28013 -3.3692198
3.7814775 0.20470895 -2.0748243 -2.6556056 -0.21370396 -1.4176561 0.0072573856 -2.4537458
-4.2642784 -1.5771381 3.3812783 1.4399835 1.1892369 0.82812905 -5.1006975 -4.904303
3.1149776 0.1536609 2.9422657 2.6156783 0.12599564 0.23345761 -0.066664666 2.8086789
-3.0249276 -3.2076306 0.582241 0.6534669 -1.6213603 -1.0870111 2.7412064 5.1127195
4.646927 -0.15994897 2.077479 1.6825398 -0.15638971 0.5831814 -0.16304484 0.2957677
2.3162065 -5.8393617 1.7926226 -0.6322388 0.9715549 -1.4382246 5.4392333 -0.19415215
-0.15327701 0.004499248 -0.9484853 -0.10854931 0.10252941 -3.1478748 -0.19931173 1.9218674
-2.774395 -0.5275596 -2.9509287 4.5329227 -1.3234127 0.5860093 3.2137024 -0.40930083
-1.8786376 0.15363534 -3.1526692 -2.4757626 0.026814818 -0.49182323 0.13550718 -0.091579795
-1.3303854 3.0244422 -3.1028066 1.2614621 1.6086403 1.0468113 0.7769516 6.469263
00000000: ea54 b23f 0866 5c3e 7959 3d40 0169 473f
00000010: 10bc b03c f047 a83e 0828 043d 60cd d93f
00000020: ab68 19c0 0dda acbd 0c3b 75bd f068 b7be
00000030: 47ff 9c3e f28f aebf f369 b540 2a1d 0b41
00000040: 071f 4940 9e9a 17be ba45 2740 5560 1040
00000050: 4ad2 653e 73f2 96be 142f 96bd 662b 0b40
00000060: bdb3 993e b63b bfbf 92d1 77bf 95ca 723f
00000070: b554 50bf d1c2 653e ab09 d640 c7b8 a140
00000080: 21f0 c73f 0832 323e 9d2b f53f c943 5a40
00000090: c00b 6cbe d300 b3be 076b 53be 7914 1d3d
000000a0: 285e 29bf 16ca 623f 64a2 1740 be55 ae3f
000000b0: 4ebf bb3e 4d46 ff3d af30 0ac0 94c7 b2bc
000000c0: 7beb a43f 42ae 35be 3d1a 0140 1ca4 cc3f
000000d0: 5e44 0d3e 951e 7fbf 674d 673e ae11 05bf
000000e0: 15e6 9abf 2e9d 9cbd e77a 5840 0c50 883f
000000f0: 6ad1 323f 72fd 603f 40e2 bfbf 0155 6d3f
00000100: d522 55c0 cb3a 67be fc7f e9bf 2d9a 9bbf
00000110: e09e 7d3d 0fb9 aa3e 1ad0 14be 7058 02c0
00000120: 5079 a53e 371b 5ebf 658a 2cbf c1ba 603e
00000130: 5fa1 b03d b4ff 003f c484 2840 8a81 44c0
00000140: 1705 353f e46f e43a 0017 cd3f f686 75bf
00000150: e0d0 033e 9cdc 21bf 3533 ab3d 4576 a73f
00000160: 4021 09c0 4223 803e e91a 8840 5ba6 e03f
00000170: 8ba0 b63f 76be 353f 4aa7 5839 329e 2bbf
00000180: 0251 35bf 0e42 e03d 4d62 08c0 bd8b 40c1
00000190: b874 5abe 66b4 5e3f 11b5 75be e310 aabf
000001a0: fb85 913f e4c1 70bf f01b c93f 8b6c 6abe
000001b0: 85d5 2c3f b495 3b3f c9bf 07bf 67d2 10bf
000001c0: 5681 9f40 73c1 913d 42a3 1040 748d 6140
000001d0: 4043 673c ed86 60be b627 27be 79b3 1240
000001e0: eb7f d7bf aeec 2dc0 4d15 a23f dcf3 91bd
000001f0: a2b0 f7be e83c 223e 96e5 26c0 fd53 4d40
00000200: 8587 0340 bf93 e33d 5267 0140 1827 aa40
00000210: 44d1 31be 3daa 1abf 5246 e7bd f364 9cc0
00000220: b5f1 d13e 8f6d 4c3f c3cb 3d40 97a6 9d3d
00000230: f65c 413f 8fd7 a33f dfa0 a8c0 838e 29c0
00000240: 817d 46be 56ac 3c3e b841 adbd 38f4 a63e
00000250: 90eb f83c b705 83be 128a 773e bdcb 43be
00000260: 85f8 193e 0298 1b3d e715 2dbe 4232 3d3e
00000270: f00a 35bd 8e30 3fbe dea3 bc3e 1d08 99be
00000280: 8fce 45c0 e30b 0e3e a67e 00c0 fcbb 61c0
00000290: 6cd0 4fbe 05cb 373f 461e cf3d fbe1 c6bf
000002a0: 4efa 86bf a599 11bf 4d2a acbe c489 c33b
000002b0: d4d9 813f d02c a3be a6ed 51c0 4ca1 57c0
000002c0: ba03 7240 399f 513e ecc9 04c0 71f5 29c0
000002d0: 36d5 5abe c175 b5bf 5dcf ed3b 2c0a 1dc0
000002e0: f874 88c0 a9df c9bf dd66 5840 6151 b83f
000002f0: ea38 983f 4400 543f ea38 a3c0 0df0 9cc0
00000300: cb5b 4740 4859 1d3e 154e 3c40 4667 2740
00000310: 0005 013e 830f 6f3e 7c87 88bd 65c1 3340
00000320: 6a98 41c0 d249 4dc0 bf0d 153f 9b49 273f
00000330: bc88 cfbf 2e23 8bbf ed6f 2f40 669b a340
00000340: a0b3 9440 aac9 23be 6af5 0440 775d d73f
00000350: a024 20be 604b 153f 3af5 26be dd6e 973e
00000360: ba3c 1440 0ddc bac0 a874 e53f 67da 21bf
00000370: d2b7 783f be17 b8bf 330e ae40 d2cf 46be
00000380: a6f4 1cbe 6e6e 933b efcf 72bf 1a4f debd
00000390: f0fa d13d c876 49c0 6018 4cbe c0ff f53f
000003a0: b08f 31c0 250e 07bf 04dc 3cc0 b40d 9140
000003b0: 9665 a9bf b504 163f 4dad 4d40 e18f d1be
000003c0: 3277 f0bf 9552 1d3e 55c5 49c0 e572 1ec0
000003d0: c0aa db3c 41d0 fbbe 65c2 0a3e 308e bbbd
000003e0: 124a aabf 7690 4140 6294 46c0 9777 a13f
000003f0: ede7 cd3f eafd 853f 4de6 463f 3404 cf40

bias f4 [16]
0.55798084 -1.8110639 0.16889389 0.69380754 1.0421712 1.1407081 0.59178877 1.1275717
-0.3425233 -0.24952613 0.8356172 0.46990383 -0.8702667 -0.7965976 -0.20193535 0.32137328
00000000: d5d7 0e3f f1d0 e7bf 85f2 2c3e 5f9d 313f
00000010: de65 853f b902 923f 787f 173f 4554 903f
00000020: 375f afbe c783 7fbe 02eb 553f 3c97 f03e
00000030: ccc9 5ebf d2ed 4bbf 24c8 4ebe 0a8b a43e

weight f4 [8, 16]
-0.2411728 -0.116766214 -0.16377611 -0.29396313 0.020776415 -0.28250015 -0.18648088 -0.029692754
0.19215207 -0.01532343 0.11295765 0.10662052 -0.05595356 -0.19054614 -0.21938318 0.11054133
-7.240409 3.3004553 0.034736983 0.5703243 2.2849596 0.4927269 1.8572071 -1.9187567
0.99452 0.20016864 1.416125 2.4209545 5.346202 -2.047519 -23.047499 -1.122032
-1.2525734 -1.3430414 0.5070342 1.576722 0.49096543 0.64698434 -0.012740324 0.7402721
2.587189 -0.21439637 -0.77127 3.069431 -3.8946764 1.2976997 4.7556973 1.1887091
-1.3956026 -4.4751735 0.8915466 1.4614695 0.22571442 1.4051341 -0.79886794 1.0641366
1.4658116 0.06801857 -0.96530807 1.804322 -4.035776 2.4135745 14.938436 1.6038313
-0.1887566 -0.095213085 -0.12312943 -0.15727067 -0.20969929 0.075755455 -0.0929427 -0.19353063
-0.31984818 0.12292272 0.113058284 0.116281345 0.13918942 -0.114835456 -0.046979927 -0.028112786
-2.1528702 -3.8998373 1.9691937 1.4647366 0.20231758 2.3832629 -0.35111916 0.7928457
1.0244507 -0.14707899 1.8208046 1.4662352 -5.799827 2.1434042 6.1768684 1.6761392
0.6343621 -0.2266296 -0.67012864 -0.29037404 0.91817474 -0.23988666 0.88657486 -0.762475
-0.15749829 0.21013227 0.6419565 -0.06729031 -0.20664564 -1.5424073 -0.21887705 -0.7234267
2.9552343 0.58683056 -0.24011113 0.42507884 3.2249439 1.28988 -2.8693314 -0.32532868
-1.9200635 -0.050317716 -2.916508 1.1490133 0.6387304 -0.47858214 -8.752648 0.45099288
00000000: 01f6 76be 2023 efbd edb4 27be 5682 96be
00000010: 4d33 aa3c dca3 90be d8f4 3ebe 383e f3bc
00000020: 83c3 443e 200f 7bbc 5756 e73d dc5b da3d
00000030: 8f2f 65bd 871e 43be fca5 60be 7e63 e23d
00000040: 6eb1 e7c0 a93a 5340 5e48 0e3d c600 123f
00000050: c73c 1240 b346 fc3e f6b8 ed3f d299 f5bf
00000060: dd98 7e3f 02f9 4c3e 9643 b53f ebf0 1a40
00000070: 1614 ab40 8d0a 03c0 4761 b8c1 bf9e 8fbf
00000080: 5354 a0bf c8e8 abbf fecc 013f 07d2 c93f
00000090: d25f fb3e c4a0 253f cbbc 50bc 7982 3d3f
000000a0: 8194 2540 b98a 5bbe f371 45bf 8f71 4440
000000b0: 6142 79c0 061b a63f ac2e 9840 9f27 983f
000000c0: 1ba3 b2bf 9f34 8fc0 663c 643f 6f11 bb3f
000000d0: ae21 673e 6fdb b33f 9c82 4cbf a135 883f
000000e0: b79f bb3f 524d 8b3d 6e1e 77bf 06f4 e63f
000000f0: 1425 81c0 0178 1a40 d503 6f41 584a cd3f
00000100: 6949 41be 14ff c2bd 482b fcbd 900b 21be
00000110: 69bb 56be ad25 9b3d be58 bebd e52c 46be
00000120: 24c3 a3be e8be fb3d 1a8b e73d ea24 ee3d
00000130: ac87 0e3e da2e ebbd 066e 40bd c94c e6bc
00000140: a0c8 09c0 ef96 79c0 8a0e fc3f 7d7c bb3f
00000150: 572c 4f3e 6187 1840 e4c5 b3be f0f7 4a3f
00000160: 3321 833f e09b 16be 2010 e93f 98ad bb3f
00000170: 2f98 b9c0 892d 0940 e8a8 c540 bb8b d63f
00000180: 8e65 223f 9711 68be 8d8d 2bbf e8ab 94be
00000190: 800d 6b3f d9a4 75be 92f6 623f 9031 43bf
000001a0: 3b47 21be ea2c 573e 4357 243f 81cf 89bd
000001b0: ea9a 53be 9a6d c5bf 4e21 60be 7e32 39bf
000001c0: 8f22 3d40 873a 163f b1df 75be efa3 d93e
000001d0: 7b65 4e40 ca1a a53f 20a3 37c0 7b91 a6be
000001e0: a4c4 f5bf f319 4ebd 11a8 3ac0 de12 933f
000001f0: d683 233f b808 f5be d90a 0cc1 8ae8 e63e

bias f4 [8]
0.15176696 1.0699923 0.7418943 1.068651 -0.1815217 1.8574766 -0.13641304 1.4831601
00000000: cc68 1b3e 82f5 883f c9ec 3d3f 8ec9 883f
00000010: d3e0 39be cbc1 ed3f dcaf 0bbe 31d8 bd3f

weight f4 [3, 8]
0.051096886 6.4850774 -1.9370636 -0.39038196 0.14234197 -2.3053393 -3.3065593 -6.183667
0.26908994 5.72985 -1.8430485 -2.1887245 0.28049737 -0.90461755 -3.8204346 -6.386277
-0.25469646 5.8817024 -0.39629433 -2.0043182 -0.055682555 -2.1312463 -3.8248322 -6.82712
00000000: f84a 513d c185 cf40 b3f1 f7bf 25e0 c7be
00000010: 18c2 113e ae8a 13c0 ab9e 53c0 9ae0 c5c0
00000020: 28c6 893e ee5a b740 03e9 ebbf 1014 0cc0
00000030: 5a9d 8f3e 0495 67bf 0082 74c0 625c ccc0
00000040: 9367 82be e836 bc40 17e7 cabe c046 00c0
00000050: 6413 64bd 5766 08c0 0dca 74c0 c477 dac0

bias f4 [3]
-4.6348505 0.81924146 -1.85699
00000000: b250 94c0 cfb9 513f d9b1 edbf
