SavedNets/doNotDelete/7-16-8-3 mse (this one is good)/Policy.pt (torch, 5463 bytes, 6 tensors)

weight f4 [16, 7]
000000 b3 43 08 3e 40 f9 8c 40 92 2a db 3e 1f b3 69 c0
       0.13307075 4.405426 0.42805916 -3.6515577
000010 be e4 3d 40 c0 4c 5b 40 81 7d de 3e 45 46 4b c0
       2.9670863 3.4265594 0.43455127 -3.176164
000020 82 4f 08 c0 e8 b4 8b bf 04 30 fe be 21 94 66 3e
       -2.1298528 -1.0914583 -0.49646008 0.22517444
000030 96 0a d4 3f e3 df 0f 3f 96 bf 88 3f f2 f2 ad bf
       1.656573 0.56201 1.0683467 -1.3589766
000040 8f 01 df c0 2a 32 8e c0 b1 ca 55 3e 97 8c 97 3f
       -6.9689403 -4.4436235 0.20878102 1.183978
000050 44 80 94 3e 01 08 13 bf 92 04 5e 3e 0d 4c 20 be
       0.2900411 -0.5743409 0.21681431 -0.15654011
000060 5b 88 73 bf 24 dc 47 c1 aa 0a 52 be 40 2d 4e 40
       -0.95129937 -12.491245 -0.2051188 3.2215118
000070 55 0a 97 be 0d a4 9b c0 f7 1a 9a c1 db dd 0e c0
       -0.2950007 -4.8637757 -19.263166 -2.232291
000080 f2 8e 07 3f bc 94 e1 3e 24 a5 0b 3f 51 2b 48 bf
       0.5295249 0.44058788 0.5454886 -0.78191096
000090 84 23 76 c0 02 dd ea be eb 29 98 3d eb 2d 27 bf
       -3.8459177 -0.4587174 0.0742987 -0.6530444
0000a0 4e 09 a1 3f c7 8f b8 3f db 0a e9 3f c3 d2 04 40
       1.2580965 1.4418877 1.8206438 2.0753639
0000b0 fc 90 e8 3e d9 3d 14 3f 04 ec 96 3d d8 e2 5e bf
       0.45423114 0.5790687 0.07369235 -0.87064886
0000c0 9a 22 db be ae 4e ef bd 2b ce fb be cc fd bf 3e
       -0.42799836 -0.11684929 -0.4918073 0.3749832
0000d0 de 79 26 3d a3 fe 9b 3f 44 ac 30 40 58 5d 95 3f
       0.040643565 1.2187084 2.7605143 1.1669111
0000e0 61 7a cb 3f 77 83 94 bf 14 41 e1 c0 ae 26 80 c0
       1.5896722 -1.160262 -7.039194 -4.0047216
0000f0 81 a6 22 3f a0 13 3f 3f 57 e7 12 bf 7f 96 35 c0
       0.63535315 0.7463932 -0.57384247 -2.8373106
000100 84 03 f1 c0 ae 07 27 3e a0 7d 54 bf 17 3d 7c be
       -7.531679 0.16311523 -0.8300419 -0.24632679
000110 6c 60 90 3f 85 0e a5 3f c8 af 89 c0 c7 f9 ae c0
       1.1279426 1.2895056 -4.3027077 -5.4679904
000120 f6 45 8c c0 99 ca 76 bf 23 f4 c8 bc cb 8d d5 be
       -4.38354 -0.9640289 -0.024530476 -0.41709742
000130 ac d6 c1 3f 0b df b6 3d 54 bb 5c be 36 6b c3 be
       1.5143638 0.08929261 -0.21555835 -0.38167733
000140 55 b0 93 3c 05 3e bc 3e 86 0c 24 bc 96 03 a3 be
       0.018028418 0.36766067 -0.010012751 -0.31838673
000150 dc 2d f9 be fd fb 6b c0 26 7f ce 3b 3b f4 b1 be
       -0.486678 -3.6872551 0.0063017784 -0.34756646
000160 0a 53 4b 3f 1f 3b 63 40 cc 93 d8 3e b1 e5 5f 3f
       0.7942358 3.5504835 0.4230026 0.87459856
000170 71 2e 81 c0 6d 76 03 c1 0c 47 45 c0 4b 4a 13 bf
       -4.036919 -8.216413 -3.0824614 -0.5753524
000180 5f be 20 3f 28 22 ed 3f b5 20 6b be be 6f 80 be
       0.62790483 1.8526049 -0.22961695 -0.25085253
000190 78 fe 8d bd 13 81 a6 3e 6e 65 b2 be 68 0a f2 bd
       -0.06933302 0.3252035 -0.3484301 -0.11818391
0001a0 5d 4d ae be d9 52 8a 3f 64 2d 8d c0 48 b5 d2 c0
       -0.34043398 1.0806533 -4.411791 -6.584629
0001b0 eb b5 48 bf eb c9 78 3f f2 85 8b 3f 6e fc e4 be
       -0.78402585 0.971831 1.0900252 -0.4472384

bias f4 [16]
000000 8a a0 1d 40 21 77 8a be 86 77 a3 3e 09 cb 07 40
       2.4629235 -0.27044013 0.31927127 2.1217673
000010 1a af 4b 3f 50 73 8f 3e 3a 0f 82 3f 0a 2f e9 be
       0.7956406 0.28017664 1.0160897 -0.455437
000020 39 d3 80 3f 74 c0 9b 3f 09 10 c1 3e 61 e4 94 be
       1.006446 1.2168107 0.37707546 -0.2908049
000030 16 64 1a 3f ca 12 32 3e 03 d4 30 be 61 26 85 3f
       0.6030897 0.1738998 -0.17268376 1.0402337

weight f4 [8, 16]
000000 99 01 b7 3f 0b 01 ee 40 21 60 f2 c0 24 91 0e c1
       1.4297363 7.4376273 -7.5742345 -8.910435
000010 13 58 93 c0 76 58 d0 bf ad de c7 3d 56 f5 c8 3f
       -4.6045012 -1.6276996 0.09759269 1.569987
000020 8f 76 d5 c0 74 5a 84 bf 5c 4e d4 c0 e4 70 94 3d
       -6.6707225 -1.0340104 -6.6345654 0.07248095
000030 a1 fb ea be 43 d6 27 c1 0a 82 2b be ad 36 08 c0
       -0.45895103 -10.48981 -0.16748825 -2.1283371
000040 a9 55 d3 3f d1 79 66 c0 2f 50 97 be fc 5b 99 3f
       1.6510516 -3.601185 -0.29553363 1.1981196
000050 97 f4 aa c0 76 01 39 40 67 1a d1 3f c1 d3 23 bf
       -5.342357 2.8907142 1.6336182 -0.63994986
000060 02 af 65 be 93 e6 86 40 fb ef c5 40 31 49 81 bd
       -0.22430041 4.2156463 6.1855445 -0.06312788
000070 25 56 e2 3f 62 86 22 bf b8 37 14 bd 3d 63 2e 40
       1.7682539 -0.634863 -0.03618595 2.724807
000080 ae d8 cc 3f 68 cc 4d c0 e5 49 dc 3f 5e 5d e8 3e
       1.6003625 -3.215601 1.7210051 0.45383734
000090 83 b2 70 c0 1e 80 a4 3f 7d 5e 00 40 ff 85 ae bf
       -3.7608955 1.2851598 2.005767 -1.3634642
0000a0 67 92 0f 40 9e 07 39 40 91 f0 cf 40 a2 10 48 3e
       2.2433107 2.89109 6.498116 0.19537595
0000b0 02 5f d5 3f 6c 1d 30 3f 58 01 98 bd 02 c5 fe 3f
       1.6669619 0.68794894 -0.07422131 1.9903872
0000c0 b5 98 c2 3f 5d e9 59 c0 37 c7 d5 bf 51 84 f6 3f
       1.5202852 -3.4048684 -1.670142 1.925913
0000d0 a9 95 c8 c0 01 0e 80 40 13 65 88 3f af 1e a4 3e
       -6.268269 4.0017095 1.0655845 0.3205466
0000e0 0d 56 d3 bf 8f 77 a4 40 cf b8 a1 40 02 bf a2 3b
       -1.6510636 5.1395946 5.0538096 0.0049666176
0000f0 dd 85 d4 3f 3a 50 da bf d0 5c b8 bd 71 80 60 40
       1.6603352 -1.7055733 -0.090020776 3.5078394
000100 18 d5 7f bf aa 59 d2 c0 00 00 ca bf 07 9e 44 40
       -0.9993453 -6.5734453 -1.578125 3.0721452
000110 01 ca a7 c0 bf a3 bb 3f 63 64 64 3f 60 3e 80 c0
       -5.2434087 1.4659346 0.8921568 -4.007614
000120 78 62 84 be b8 d6 17 40 26 11 2d 40 14 7b 42 3e
       -0.25856376 2.3724804 2.7041717 0.18992263
000130 4d d3 79 40 d8 4f eb bf 38 a2 4c be 48 e3 62 40
       3.9035218 -1.8383741 -0.19983757 3.5451221
000140 7c ec 84 3d a2 c5 3b 3e a5 70 1e be 9d 5b 16 3f
       0.06490418 0.1833711 -0.15472658 0.5873354
000150 cb ec 2b 3d bc c4 2d be 92 9b 8a be e9 b6 ad bd
       0.04197387 -0.1696958 -0.27071816 -0.08482153
000160 cf 52 f0 bd f1 29 3d be ca 42 3c 3e 7e 45 4b be
       -0.117345445 -0.1847303 0.18384853 -0.19850728
000170 f5 ab 44 3e bf 35 e3 3b a0 41 e2 3c 01 ad c5 3c
       0.19206221 0.0069338973 0.027619183 0.024130346
000180 74 c9 7f 3f 05 56 e4 40 09 4b ee c0 4d a3 07 c1
       0.9991677 7.1355004 -7.4466596 -8.477368
000190 3d 77 bc c0 a1 63 03 c0 79 79 19 3f 47 b7 8b 3f
       -5.8895555 -2.0529559 0.5995098 1.0915307
0001a0 61 a7 d1 c0 25 f0 e5 bf 3e cd e3 c0 8e 9c 5b bd
       -6.551682 -1.7963911 -7.118804 -0.0536161
0001b0 eb 59 fe be 9c 53 09 c1 e0 22 f5 bd 80 d9 26 c0
       -0.49677977 -8.582912 -0.119695425 -2.6070251
0001c0 60 14 96 3f a9 72 6e c0 ca a3 14 be be 23 41 3f
       1.1724968 -3.7257483 -0.14515606 0.75445163
0001d0 90 ad a5 c0 53 13 2b 40 be 69 c5 3f 77 17 1e bf
       -5.177437 2.6730545 1.5422895 -0.61754555
0001e0 b0 ba 0a bd 0c 1e 68 40 a1 34 c4 40 70 f0 17 3d
       -0.033869445 3.626834 6.1314244 0.037094533
0001f0 be dc b2 3f 93 74 16 bf 76 ea 38 be 10 6d 27 40
       1.3973615 -0.5877163 -0.1805819 2.6160316

bias f4 [8]
000000 d7 0c 70 3f 5b c0 08 3f f5 84 bd 3e c9 21 66 3f
       0.9376959 0.5341851 0.370155 0.898953
000010 f6 3d 21 40 e9 b1 43 be 3a d3 d5 3f a8 34 f3 3e
       2.5194068 -0.19110836 1.6705086 0.4750111

weight f4 [3, 8]
000000 28 42 b5 40 f9 e8 02 c0 a3 f8 e7 bf 8c 7a 06 c0
       5.6643257 -2.0454695 -1.8122753 -2.1012297
000010 fd 09 2f c1 92 1d 98 3e c0 2e a6 40 49 0d 0e c0
       -10.939939 0.2971006 5.193207 -2.2195609
000020 d8 36 a4 40 7c d2 fd bf 18 d5 a3 bf da 9e 37 c0
       5.131695 -1.982986 -1.2799406 -2.8690705
000030 b8 85 2f c1 30 64 24 3f 17 cd b2 40 c3 b7 d7 bf
       -10.970146 0.64215374 5.5875354 -1.6852955
000040 11 b6 b1 40 76 32 f7 bf 02 4f 29 c0 e4 e6 d1 bf
       5.553475 -1.9312274 -2.6454473 -1.6398587
000050 c8 f9 2d c1 2f 83 05 3f 83 8f a6 40 13 7a f0 bf
       -10.873482 0.52153295 5.2050185 -1.8787254

bias f4 [3]
000000 4d 3f 8c 3e 30 fe e2 bf d5 58 97 3e
       0.27392045 -1.7733822 0.2955996
