SavedNets/doNotDelete/7-16-8-3 mse (this one is good)/Policy.pt (torch, 5463 bytes, 6 tensors)

weight f4 [16, 7]
00000000: a48a 76c0 c863 7840 3917 953f a9cf 49c0
00000010: 1abd db3f 44b2 a740 7c30 d440 8d51 5e3f
00000020: 98b3 3fc0 c62f 8bbf ab4b 52bf d65f 6a3e
00000030: c6c4 0240 a047 303e 89b1 4140 49a3 a7bf
00000040: 06b5 60c0 4c0d 12c0 ae42 53c0 eddd 2440
00000050: 22ad 52bf d54d 9dbf 8855 0fbd 1535 aabf
00000060: f265 03bf 1469 9cc0 5d60 89c0 3f8d 2441
00000070: 5a21 fc3f 7362 f2bf 77db a1c1 5786 86c0
00000080: c392 02bf 4eb8 863f 64b9 943f b39b 3bc0
00000090: f893 02be 57c1 ed3d d953 5fbe 4a9e e4bf
000000a0: 0bee ec3f b30b 5e40 d729 3e3f ee11 d63f
000000b0: 83a7 a33f 1552 e83f 753b 6440 535c 8dbe
000000c0: 037f 44be 3b09 043f f4e8 5dbe af2c e33e
000000d0: b370 9c3f 599e 0040 6d14 7a40 19a9 d7bf
000000e0: bce9 6a40 54f0 02bf 8d06 ccc0 a42e 3ec0
000000f0: 056a 823e 074b 1c3f d89e 7ac0 3101 d43f
00000100: 4742 20c1 4ba0 47be 92a7 dfbe 1308 3fbf
00000110: c8e2 f13e 17c5 cd3f 0f03 88c0 8899 a9c0
00000120: d590 02c0 a926 f3be ee00 a9be b7cc 1dbf
00000130: 38b1 b43f 0bdf b63d 54bb 5cbe 366b c3be
00000140: 55b0 933c 053e bc3e 860c 24bc 9603 a3be
00000150: 7a0a 253f 79cc f5bf 1022 8bbf d420 e3be
00000160: dc25 e2be 896e aa40 77d7 3ac0 dfce ce40
00000170: abdd aec0 bf68 bcc0 2656 8cbf 6d2a 6fbf
00000180: 7c9b 213f f334 f23d b520 6bbe be6f 80be
00000190: 78fe 8dbd 1381 a63e 6e65 b2be 680a f2bd
000001a0: 5d4d aebe fb6d 6040 7d00 37c0 b7ce d3c0
000001b0: 10bc 26bd af52 483f 050f 593f 9295 4bc0
-3.852212 3.8810902 1.1647712 -3.1532996 1.7167084 5.240511 6.6309185 0.86843187
-2.9953365 -1.0873954 -0.8214671 0.22888121 2.04326 0.17214823 3.026461 -1.3096706
-3.5110488 -2.2820616 -3.3009448 2.5760453 -0.8229543 -1.2289377 -0.03499368 -1.3297449
-0.5132743 -4.887827 -4.293013 10.284484 1.9697678 -1.8936294 -20.23216 -4.203899
-0.5100519 1.0524995 1.1619077 -2.9313781 -0.12751758 0.11609142 -0.21809329 -1.7860806
1.8510145 3.469464 0.7428259 1.6724222 1.2785496 1.815005 3.566129 -0.276095
-0.19189076 0.51576585 -0.21670896 0.44370028 1.2221893 2.0096648 3.9074967 -1.684848
3.670516 -0.5114796 -6.3757997 -2.9715967 0.2547151 0.6105198 -3.915945 1.6562864
-10.016181 -0.1949474 -0.43682534 -0.74621695 0.47243333 1.6075772 -4.2503734 -5.2999916
-2.0400898 -0.47490433 -0.33008522 -0.61640495 1.4116583 0.08929261 -0.21555835 -0.38167733
0.018028418 0.36766067 -0.010012751 -0.31838673 0.6446911 -1.9203025 -1.086977 -0.44360983
-0.4416951 5.325993 -2.919401 6.462753 -5.464559 -5.8877864 -1.096379 -0.9342411
0.63127875 0.118265055 -0.22961695 -0.25085253 -0.06933302 0.3252035 -0.3484301 -0.11818391
-0.34043398 3.5067127 -2.8594048 -6.6189837 -0.040706694 0.78251165 0.84788543 -3.181004

bias f4 [16]
00000000: 830b ee3f 5bed 32bf b7c4 3e3f c15a a63f
00000010: 02be e73f e52d d43d f2b5 ec3e b2f2 5bbf
00000020: 0fe5 e73f 15f7 9c3f adc7 883d 61e4 94be
00000030: c511 933f bc83 a93e 03d4 30be b34d 7c3f
1.8597263 -0.69893426 0.74518913 1.2996446 1.8104861 0.10360316 0.46232563 -0.859172
1.8116778 1.2262903 0.0667871 -0.2908049 1.1489798 0.33108318 -0.17268376 0.9855606

weight f4 [8, 16]
00000000: a2d9 c53f 88c8 de40 ec4a 64c1 e52a 01c1
00000010: b4b3 f8c0 789d 6b40 c4d7 1cbf 47d4 c33f
00000020: a6e1 5bc1 0828 3f3f ff81 9fc0 e470 943d
00000030: d4bd 9abf e3aa 55c1 0a82 2bbe 3cb5 c2c0
00000040: d5ab f73f 62a0 a4bf c335 68bf 1dfe a3be
00000050: bade 84c0 0e52 6e40 10df e13f c551 ccbf
00000060: 5b81 2340 86a2 b840 442d ca40 3149 81bd
00000070: c6ec 643e ccc5 7a3e b837 14bd 120d 8b3f
00000080: c9da c93f 81b2 313f 0a7f 0bc0 4549 1240
00000090: c2e3 06c0 6f08 1440 35ce 0140 9e94 45c0
000000a0: 15cd 4340 f3d2 dd40 ab40 ee40 a210 483e
000000b0: 3b50 573f 19f0 a23f 5801 98bd c988 d83e
000000c0: 9af6 0440 e3e7 45c0 c6cb 883f 4822 abbf
000000d0: de98 87c0 c8c0 9740 8e56 ab3f b371 393f
000000e0: 2908 3040 7bb4 8b40 3251 9140 02bf a23b
000000f0: 2373 97bf 42e8 1dbd d05c b8bd 4107 9d3f
00000100: f297 b0bf 5670 b5c0 15c3 a7be b603 7340
00000110: 3964 ebbf 7ed8 a43f 7ce1 d73f 69fd afc0
00000120: f1f4 99bf cfe7 d53f 4b5c 3e40 147b 423e
00000130: 0717 ce40 644f 87c0 38a2 4cbe e15f de40
00000140: 974d 1abf 3902 dfbd 3ffd abc0 577f e640
00000150: d36e 88c0 b209 7740 58df a3bf 04dc 883e
00000160: a139 4f40 e1fd 3040 070d 8cbf 7e45 4bbe
00000170: cc26 bb3f 192d 0bc1 a041 e23c 4cf7 fb3f
00000180: b49b ba3f 233d 9440 138b 31c1 db6e 41c1
00000190: 1a03 6cc1 ec1f 15c0 f317 ac3e 503d 053e
000001a0: 4019 0ec1 8e21 0dc1 a5cf c1c0 8e9c 5bbd
000001b0: c952 ffbf f930 f2c0 e022 f5bd 2e36 85c0
000001c0: 3504 b13f 56cd 91bf 488c e4bf d09d dabe
000001d0: c7b5 8ec0 5535 5f40 f6ea c63f b796 f5bf
000001e0: 6d4d f33f 9b9f a740 35c8 cc40 70f0 173d
000001f0: 749a 473e b6e4 96be 76ea 38be 72df 883f
1.5457041 6.961979 -14.268291 -8.072972 -7.7719364 3.6814861 -0.6126673 1.5299157
-13.74259 0.7467046 -4.9846187 0.07248095 -1.2089181 -13.35422 -0.16748825 -6.0846233
1.9349314 -1.2861445 -0.90707034 -0.3202981 -4.1521883 3.7237582 1.7646198 -1.5962454
2.5547702 5.7698393 6.3180256 -0.06312788 0.22355947 0.24489516 -0.03618595 1.0863364
1.5769893 0.69413 -2.1796288 2.285722 -2.1076512 2.3130147 2.0282109 -3.0871959
3.0593922 6.9320006 7.445394 0.19537595 0.84106797 1.2729522 -0.07422131 0.4229186
2.0775514 -3.0922782 1.0687187 -1.3369837 -4.2374105 4.742283 1.3385789 0.72439116
2.750498 4.3657813 4.5411615 0.0049666176 -1.1832012 -0.038551576 -0.090020776 1.2267839
-1.379637 -5.669963 -0.32766023 3.7971015 -1.838996 1.2878568 1.6865687 -5.499684
-1.2027875 1.6711367 2.974383 0.18992263 6.440311 -4.228441 -0.19983757 6.949204
-0.6027464 -0.10889096 -5.374664 7.2030444 -4.2635283 3.8599668 -1.2802534 0.2673036
3.2378924 2.7654955 -1.0941476 -0.19850728 1.4621215 -8.69851 0.027619183 1.9684844
1.4578767 4.632463 -11.096454 -12.089564 -14.750757 -2.3300734 0.33612022 0.1301167
-8.881165 -8.820692 -6.056597 -0.0536161 -1.9947139 -7.568478 -0.119695425 -4.1628637
1.3829409 -1.1390789 -1.785531 -0.42698526 -4.4596896 3.4876301 1.5540454 -1.918662
1.9008003 5.238233 6.3994393 0.037094533 0.19492513 -0.29471368 -0.1805819 1.069319

bias f4 [8]
00000000: 2d93 b43f 54e0 61bf 627e 8fbe 59af 8cbf
00000010: 2b12 4a40 9ab1 4dbf 3ea9 3840 d371 46bf
1.4107414 -0.8823292 -0.2802611 -1.0991012 3.157359 -0.80349123 2.8853297 -0.7751743

weight f4 [3, 8]
00000000: a566 d940 ccdc 19c0 9c8c 29c0 791b e6bf
00000010: 867d a9c1 2a2d 4541 7bd3 d840 3909 39c0
00000020: d7b5 bb40 da60 0bc0 3dd2 95bf 4172 5dc0
00000030: 875c c0c1 7b53 4341 df55 ec40 fe25 ebbf
00000040: 243a c440 8094 07c0 bb8b 65c0 a448 9ebf
00000050: 4f53 a6c1 eaab 4241 2b9b c540 243a 09c0
6.79378 -2.4041014 -2.649207 -1.7977134 -21.18629 12.323526 6.7758155 -2.891188
5.8659472 -2.1777864 -1.1704785 -3.4600985 -24.04518 12.207881 7.3854823 -1.8370969
6.1320972 -2.1184387 -3.5866535 -1.2365918 -20.790678 12.166971 6.1751914 -2.1441736

bias f4 [3]
00000000: d802 adbf 06a5 0e3f 0575 983d
-1.3516493 0.55720556 0.07444195
