SavedNets/doNotDelete/new2/Policy.pt (torch, 7559 bytes, 8 tensors)

weight f4 [16, 7]
00000000: cddd b1bf 8c03 c93c f085 96be 3e68 563e
00000010: 2d3a edc0 9363 5fbf 025d 8e40 e2c0 a23c
00000020: bd2c 753e fdb6 b7bd 5428 f5bd 8c53 a63e
00000030: c1d3 42be c17d 4ebd 31b6 4b3e 255b 30bb
00000040: cb2f 023f 7ca3 3fbf dcd8 dfc0 5192 4dc0
00000050: 407f c3bf 2108 9bbd 586a 563f f07f 4cbe
00000060: 58df 43c0 a11e 0dc1 6f28 d4bf efc7 6d3f
00000070: c822 92bd 1ba1 b7be 54ea 93bd 6481 e4bd
00000080: aa84 b2be ef71 74be 8b54 1cbe c9f4 36c0
00000090: 861c 3440 47c2 ea3e 366a a4ba 7ad2 193e
000000a0: 5fc6 a6bf 2d6e 273f b516 43be 80f2 9fbe
000000b0: 1e0d aabe 46b2 aa3d 8cac 07be f21a 5ebe
000000c0: 64fc 55be a6c0 8dc0 9582 133f ec95 7f3f
000000d0: b16b 25bf 566e 28bf dbbf 0bbf b817 5840
000000e0: 83ad a33c 18a2 a93f 9e66 863e 14fb a43e
000000f0: 1886 f03e 2e57 4b3f 4ef0 d73e 0d3c 21bf
00000100: 0cdd 0140 0a4b 3bbf b1b2 243f 4a2c 813f
00000110: c5e2 f5bf 374b 51bf 4cc7 103e 126e 3040
00000120: 4918 d2bf 7d9e c5bf ae7e 84c0 1781 2dbe
00000130: 7812 793f 7ad0 a3bf 5638 1440 aa6f 743f
00000140: 952e 9ebd 22eb a8be 1b28 d5c0 9f4d 5340
00000150: 56fa 3abd 1cfd 6ebe f1d1 f33f b842 aebe
00000160: 8574 b5bf b993 3840 7ed3 b4bf dbfb b43f
00000170: fd29 c2bf 159a 30bf c506 e43e ffef 4b3f
00000180: 58e0 7640 85f7 b6bf 9756 1c40 c727 04bf
00000190: 6a1d a1bd 90cb 1dc0 d749 e3be 74c6 1e40
000001a0: 7e34 b4bf 53d4 79be b107 3e40 992d 4abf
000001b0: d9f9 14c0 c70c 403f 6da5 9c3f 732d a83f
-1.3895813 0.024537824 -0.2939906 0.20938203 -7.4133515 -0.87261313 4.4488535 0.019867364
0.23942848 -0.08970449 -0.119705826 0.32485616 -0.1902609 -0.050412897 0.1989372 -0.0026909795
0.50854176 -0.7485883 -6.995222 -3.2120554 -1.5273209 -0.0756991 0.8375602 -0.1997068
-3.0605068 -8.819978 -1.6574839 0.928832 -0.0713554 -0.358651 -0.07222429 -0.11157492
-0.3486684 -0.23871587 -0.15266626 -2.8586905 2.814241 0.45851347 -0.001254386 0.15021697
-1.3029288 0.6540249 -0.19051631 -0.312397 -0.33213133 0.08334784 -0.13249415 -0.21689966
-0.2089706 -4.4297667 0.5762113 0.9983814 -0.6461745 -0.6579336 -0.54589623 3.3764477
0.019980198 1.3252592 0.26250166 0.32222807 0.46977305 0.794299 0.42175525 -0.62982255
2.0291166 -0.73161376 0.6433516 1.0091641 -1.920983 -0.81755394 0.14138526 2.7567182
-1.6413661 -1.5438992 -4.140464 -0.16943775 0.97293806 -1.2797997 2.3159385 0.95482886
-0.077237286 -0.32991892 -6.6611457 3.3016126 -0.045648895 -0.23338741 1.9048444 -0.34035277
-1.4176184 2.8840163 -1.4127042 1.413936 -1.5169064 -0.6898511 0.44536415 0.7966308
3.8574429 -1.4294287 2.442785 -0.51623195 -0.078669384 -2.4655495 -0.44392273 2.4808626
-1.4078519 -0.24397402 2.9692194 -0.78975827 -2.3277495 0.75019497 1.2237984 1.313887

bias f4 [16]
00000000: bf27 6a3f 0275 cabe 3cb7 9fbe 4dd9 9f3f
00000010: 18d7 bdbd 36cd 6f3f e925 233e 8553 13bd
00000020: 7987 b3bf a33a 2cbf cd60 63be 644f d93e
00000030: 5e7e be3e 917b a43f 8d88 95bf 5887 0ac0
0.914669 -0.39542395 -0.31194484 1.248819 -0.092695415 0.936725 0.1593243 -0.035968322
-1.4025718 -0.6727697 -0.22204895 0.42443383 0.37205786 1.285021 -1.1682297 -2.1645107

weight f4 [16, 16]
00000000: 8891 b03f 0866 5c3e 7959 3d40 4394 4a3f
00000010: 10bc b03c 9976 ae3e 0828 043d ebb7 d63f
00000020: 4d95 17c0 45d3 5abd 21bd 16bd b569 b2be
00000030: 514d a13e 84ec acbf 14dc b440 fd95 0b41
00000040: ab27 4640 9e9a 17be ba45 2740 cd3e 1340
00000050: 4ad2 653e 36be 96be 142f 96bd 091a 0a40
00000060: 8cdd 8f3e 8a49 b8bf d075 76bf 155b 713f
00000070: 346e 54bf 5f2e 6f3e 36c5 d640 8723 a140
00000080: 2c30 c13f 0832 323e 9d2b f53f d84c 5a40
00000090: c00b 6cbe 78eb b1be 076b 53be 31b2 6e3c
000000a0: 3ab3 24bf 5f1a 6a3f 14fb 1940 ac12 ad3f
000000b0: f35e b43e 3e03 f83d 6c86 0cc0 90bb d4bb
000000c0: 9d4f a83f 42ae 35be 3d1a 0140 d46b c73f
000000d0: 5e44 0d3e 1b3b 80bf 674d 673e 7347 0dbf
000000e0: 2ae2 96bf fcab 89bd a7b3 5740 eafa 883f
000000f0: 0a44 303f 4d12 603f 84d7 c6bf 9fff 6e3f
00000100: 0ab7 51c0 cb3a 67be fc7f e9bf 50a9 adbf
00000110: e09e 7d3d 24b8 a23e 1ad0 14be 1136 02c0
00000120: 2d8f a43e 8f1f 51bf 63a3 2fbf c75d 753e
00000130: 7cde a73d 0d23 013f e2ea 2740 ac8f 44c0
00000140: e78d 413f e46f e43a 0017 cd3f cf2f 7fbf
00000150: e0d0 033e a1c0 25bf 3533 ab3d 2ca6 a33f
00000160: 34e8 08c0 32ec 8b3e d369 8840 04c8 e03f
00000170: cd3c b43f 3f63 343f cc9a f9bc 333e 31bf
00000180: 0232 41bf 0e42 e03d 4d62 08c0 2bae 40c1
00000190: b874 5abe dc2a 5f3f 11b5 75be 5f9b abbf
000001a0: d313 943f 79d0 73bf 42c0 cf3f 0f16 72be
000001b0: 8b79 2a3f 8eab 3c3f 876b 0cbf 4248 fdbe
000001c0: 3273 9f40 73c1 913d 42a3 1040 c906 6740
000001d0: 4043 673c f0be 70be b627 27be 350e 1340
000001e0: e9f8 d5bf aee0 30c0 65a7 a53f 03ed 96bd
000001f0: c6b0 f3be 7645 173e 7aab 24c0 689a 4840
00000200: 9bcf 0240 bf93 e33d 5267 0140 6024 ab40
00000210: 44d1 31be b7aa 18bf 5246 e7bd a474 9dc0
00000220: 9b29 ef3e 7fe2 483f 9f70 3c40 0bd5 903d
00000230: 8705 403f 3c80 a33f eb2a a9c0 49e9 2ac0
00000240: 817d 46be 56ac 3c3e b841 adbd 38f4 a63e
00000250: 90eb f83c b705 83be 128a 773e bdcb 43be
00000260: 85f8 193e 0298 1b3d e715 2dbe 4232 3d3e
00000270: f00a 35bd 8e30 3fbe dea3 bc3e 1d08 99be
00000280: 3d32 47c0 e30b 0e3e a67e 00c0 32e7 5cc0
00000290: 6cd0 4fbe c60c 3a3f 461e cf3d ccf8 c3bf
000002a0: c16c 86bf c99b 07bf 6990 abbe 8700 873b
000002b0: 5cae 813f 9287 a2be d20d 50c0 a86d 5cc0
000002c0: 57d7 7740 399f 513e ecc9 04c0 bfee 2dc0
000002d0: 36d5 5abe 7ba6 b3bf 5dcf ed3b ba56 21c0
000002e0: 00b8 87c0 05cb c7bf 60f6 5440 1ac5 b63f
000002f0: d476 9a3f 0b41 533f 75c1 a5c0 5fbe 9ec0
00000300: 8913 4a40 4859 1d3e 154e 3c40 7526 2840
00000310: 0005 013e ac0f 813e 7c87 88bd 49e2 3240
00000320: 6491 43c0 7825 4ec0 6fbb 0f3f d71c 283f
00000330: 17d3 cdbf b06c 91bf 0f2b 3740 76e7 a440
00000340: 400d 9240 aac9 23be 6af5 0440 b487 e23f
00000350: a024 20be cb72 183f 3af5 26be 7529 9d3e
00000360: ec78 1440 674a b8c0 a9ee f33f 02e1 26bf
00000370: 30e2 7c3f 711a b7bf 882d ac40 129a 31be
00000380: bbaa 27be 6e6e 933b efcf 72bf b873 7abc
00000390: f0fa d13d 3b87 49c0 6018 4cbe 2c60 fa3f
000003a0: 169f 31c0 c42b 0abf ae66 41c0 1018 9140
000003b0: 22b0 a9bf 248d 143f 0d37 4e40 5ec4 cfbe
000003c0: 96af f1bf 9552 1d3e 55c5 49c0 da75 23c0
000003d0: c0aa db3c 7354 fcbe 65c2 0a3e b93c 9cbd
000003e0: 38dc a9bf b584 4140 289d 46c0 2d35 a13f
000003f0: ad29 cd3f 007d 853f 1307 443f b699 cf40
1.3794413 0.21523297 2.958586 0.7913248 0.02157405 0.34074858 0.03226474 1.6774877
-2.3684876 -0.05342414 -0.03680146 -0.34846273 0.315043 -1.3509679 5.651865 8.724118
3.0961711 -0.14805076 2.6136308 2.300708 0.224435 -0.29441994 -0.07333198 2.157839
0.28098714 -1.4397442 -0.9627352 0.94279605 -0.82980657 0.23357533 6.7115736 5.035587
1.5092826 0.17401898 1.9153935 3.4109402 -0.23051357 -0.3474996 -0.20646296 0.014568851
-0.6433598 0.9144649 2.4059496 1.3521323 0.3522869 0.121099934 -2.1957045 -0.0064920858
1.3149296 -0.17742255 2.0172265 1.5579782 0.13795611 -1.0018038 0.2258812 -0.5518715
-1.178777 -0.067222565 3.37034 1.0701573 0.6885382 0.87527925 -1.553452 0.93358797
-3.2767968 -0.22581021 -1.8242183 -1.3567295 0.061919093 0.31781113 -0.1453251 -2.03455
0.32140484 -0.8168878 -0.68608683 0.23961554 0.081967324 0.5044411 2.623711 -3.071269
0.7560715 0.0017428366 1.6022644 -0.99682325 0.12872648 -0.64747053 0.08359376 1.2785087
-2.1391726 0.2732864 4.262918 1.756104 1.4081055 0.7046394 -0.03046932 -0.69235533
-0.7546693 0.10950099 -2.1309998 -12.042521 -0.21333587 0.87174773 -0.23994853 -1.340679
1.156855 -0.9523998 1.6230547 -0.23641227 0.6659171 0.7369927 -0.54851574 -0.4946919
4.982812 0.07116976 2.2599645 3.6097891 0.014115155 -0.23510337 -0.16323742 2.2977421
-1.6716586 -2.7637134 1.294171 -0.07369425 -0.47595805 0.14772591 -2.572966 3.1344242
2.0439212 0.11112165 2.0219312 5.3481903 -0.17364985 -0.5963549 -0.112927094 -4.9204884
0.4671143 0.78470606 2.9443738 0.07071885 0.75008434 1.2773509 -5.286489 -2.6704886
-0.19383813 0.18425116 -0.084598005 0.326082 0.030385762 -0.25590298 0.24173763 -0.19120689
0.15036209 0.037986763 -0.16902886 0.18476203 -0.044199884 -0.18670866 0.3684377 -0.29889002
-3.1124413 0.13871722 -2.00773 -3.451611 -0.2029435 0.7267574 0.10113196 -1.5310302
-1.0501939 -0.52972084 -0.33508614 0.004119936 1.0131335 -0.31744057 -3.2508435 -3.444193
3.8725183 0.20470895 -2.0748243 -2.717697 -0.21370396 -1.4035181 0.0072573856 -2.5209184
-4.241211 -1.5608832 3.3275375 1.4278901 1.2067513 0.8252112 -5.1798654 -4.9607387
3.1574423 0.1536609 2.9422657 2.6273472 0.12599564 0.2520727 -0.066664666 2.7950613
-3.055749 -3.221037 0.56145376 0.65669006 -1.6080045 -1.1361294 2.862003 5.1532545
4.5641174 -0.15994897 2.077479 1.7697663 -0.15638971 0.5955016 -0.16304484 0.30695692
2.3198805 -5.7590823 1.9057208 -0.65187085 0.98782635 -1.4304944 5.380558 -0.1734393
-0.16373722 0.004499248 -0.9484853 -0.015286379 0.10252941 -3.1488788 -0.19931173 1.9560599
-2.7753348 -0.5397303 -3.021892 4.5341873 -1.3256876 0.58027864 3.22211 -0.40579504
-1.888171 0.15363534 -3.1526692 -2.554068 0.026814818 -0.4928318 0.13550718 -0.076287694
-1.327033 3.0237248 -3.103342 1.2594353 1.6028343 1.0428772 0.76573294 6.4875135

bias f4 [16]
00000000: 4ceb 103f 2d1c e7bf 081c 283e 0958 313f
00000010: 8e67 883f 0a35 923f 2c95 153f a12a 903f
00000020: d269 c4be c783 7fbe 1459 543f 94c2 f73e
00000030: a55f 5fbf 9268 4cbf dd71 54be 7ed5 a23e
0.56609035 -1.8055474 0.16416943 0.69274956 1.0656602 1.1422436 0.58430743 1.1263009
-0.38361984 -0.24952613 0.8294842 0.4839064 -0.87255317 -0.7984706 -0.2074656 0.31803507

weight f4 [8, 16]
00000000: 01f6 76be 2023 efbd edb4 27be 5682 96be
00000010: 4d33 aa3c dca3 90be d8f4 3ebe 383e f3bc
00000020: 83c3 443e 200f 7bbc 5756 e73d dc5b da3d
00000030: 8f2f 65bd 871e 43be fca5 60be 7e63 e23d
00000040: 4ef8 e7c0 32cc 5340 d164 063d be54 113f
00000050: 1920 1240 4296 f93e ae29 ed3f 080d f8bf
00000060: 2a2c 7f3f 02f9 4c3e a852 b43f 4f42 1a40
00000070: ad44 ad40 c859 01c0 178f b8c1 f70f 8fbf
00000080: bb91 a3bf 49e8 a4bf 79bb ff3e 7059 c83f
00000090: 4980 013f 7628 263f 51c1 13bb 1fca 3c3f
000000a0: d644 2340 b98a 5bbe f6c7 40bf ca4d 4640
000000b0: 8ab9 7dc0 3c8e ac3f f915 9740 6abe 983f
000000c0: 2648 b5bf a515 8ec0 6d09 643f c143 ba3f
000000d0: e178 6e3e eb79 b33f 7fd5 4cbf 121a 8a3f
000000e0: 9de8 ba3f 524d 8b3d f856 76bf c313 e73f
000000f0: 7d2f 82c0 bc61 1b40 4e2c 6f41 c66a cc3f
00000100: 6949 41be 14ff c2bd 482b fcbd 900b 21be
00000110: 69bb 56be ad25 9b3d be58 bebd e52c 46be
00000120: 24c3 a3be e8be fb3d 1a8b e73d ea24 ee3d
00000130: ac87 0e3e da2e ebbd 066e 40bd c94c e6bc
00000140: ca69 07c0 37db 78c0 2f49 fc3f 8b30 bc3f
00000150: f9d8 5b3e 53f3 1740 6419 b3be c9d1 4a3f
00000160: aad2 863f e09b 16be 24a8 e73f e296 bc3f
00000170: f683 bac0 896e 0c40 3f33 c440 9d8f d43f
00000180: 69a5 253f 08b0 90be 1e9d 25bf 6046 8ebe
00000190: 724d 713f 0605 77be 3076 653f 4cc2 45bf
000001a0: 1ddb 30be ea2c 573e f6fc 203f ce98 0fbd
000001b0: ea9a 53be fdf9 ccbf 29cb 68be a334 41bf
000001c0: 3cbe 3940 f8af 123f 9a1c 72be abbc df3e
000001d0: 0920 4e40 880f a63f 7ab9 38c0 03ae 9abe
000001e0: 024d f7bf f319 4ebd 9daa 3ac0 fa8e 943f
000001f0: 969d 103f cfa3 d3be 32ad 0ec1 52c3 e73e
-0.2411728 -0.116766214 -0.16377611 -0.29396313 0.020776415 -0.28250015 -0.18648088 -0.029692754
0.19215207 -0.01532343 0.11295765 0.10662052 -0.05595356 -0.19054614 -0.21938318 0.11054133
-7.2490606 3.309338 0.03281099 0.5676993 2.283209 0.4874745 1.8528345 -1.9378977
0.99676764 0.20016864 1.4087725 2.4102972 5.4146333 -2.0211048 -23.069868 -1.1176747
-1.2778848 -1.2883388 0.49947718 1.5652294 0.5058637 0.6490549 -0.0022545645 0.7374591
2.5510764 -0.21439637 -0.75305116 3.0984979 -3.9644494 1.3480906 4.721432 1.193311
-1.4162643 -4.440142 0.8907688 1.4551927 0.23288299 1.4021581 -0.8001327 1.0789206
1.4602238 0.06801857 -0.96226454 1.8052906 -4.068297 2.4278402 14.948317 1.5970085
-0.1887566 -0.095213085 -0.12312943 -0.15727067 -0.20969929 0.075755455 -0.0929427 -0.19353063
-0.31984818 0.12292272 0.113058284 0.116281345 0.13918942 -0.114835456 -0.046979927 -0.028112786
-2.1158319 -3.8883798 1.9709834 1.4702314 0.21469487 2.3742263 -0.3498031 0.79226357
1.053304 -0.14707899 1.8098187 1.4733546 -5.8286085 2.1942465 6.1312556 1.6606327
0.6470552 -0.282593 -0.64692867 -0.27788067 0.942588 -0.2412301 0.89633465 -0.772496
-0.17271085 0.21013227 0.6288599 -0.035057835 -0.20664564 -1.601379 -0.2273375 -0.7547094
2.902236 0.57299757 -0.23643723 0.4369863 3.2207053 1.297349 -2.8863206 -0.30210885
-1.9320376 -0.050317716 -2.9166634 1.1606133 0.5649046 -0.41335914 -8.917284 0.45266205

bias f4 [8]
00000000: cc68 1b3e edce 883f 7469 3d3f 8175 883f
00000010: d3e0 39be 51c7 ed3f e804 16be 8942 bf3f
0.15176696 1.0688149 0.73989034 1.0660859 -0.1815217 1.8576452 -0.14650309 1.494218

weight f4 [3, 8]
00000000: f84a 513d e615 d040 03cb fabf f978 c0be
00000010: 18c2 113e 09b1 13c0 57ab 5fc0 c79a c7c0
00000020: 28c6 893e b214 b740 7d90 eabf bac8 0bc0
00000030: 5a9d 8f3e 6e59 68bf d000 75c0 a886 d0c0
00000040: 9367 82be 2d47 bc40 c4b7 cdbe b362 00c0
00000050: 6413 64bd cebc 07c0 ddd6 79c0 f70d d9c0
0.051096886 6.502673 -1.9593204 -0.37592295 0.14234197 -2.3076804 -3.4948328 -6.2376437
0.26908994 5.7212763 -1.8325344 -2.1841264 0.28049737 -0.9076146 -3.8281746 -6.5164375
-0.25469646 5.8836884 -0.40179265 -2.0060241 -0.055682555 -2.1208987 -3.9037392 -6.7829547

bias f4 [3]
00000000: 6b19 95c0 1aae 543f ff80 edbf
-4.659353 0.8307816 -1.8554991
